…
tion":{"iopub.status.busy":"2024-01-04T01:46:53.430520Z","iopub.execute_input":"2024-01-04T01:46:53.431053Z","iopub.status.idle":"2024-01-04T01:46:53.573470Z","shell.execute_reply.started":"2024-01-04T01:46:53.431018Z","shell.execute_reply":"2024-01-04T01:46:53.572170Z"},"trusted":true},"execution_count":67,"outputs":[{"name":"stdout","text":"Model: \"sequential_2\"\n_________________________________________________________________\n Layer (type)                Output Shape              Param #   \n=================================================================\n dense_14 (Dense)            (None, 9)                 99        \n                                                                 \n dense_15 (Dense)            (None, 90)                900       \n                                                                 \n dense_16 (Dense)            (None, 180)               16380     \n                                                                 \n dense_17 (Dense)            (None, 360)               65160     \n                                                                 \n dense_18 (Dense)            (None, 180)               64980     \n                                                                 \n dense_19 (Dense)            (None, 90)                16290     \n                                                                 \n dense_20 (Dense)            (None, 1)                 91        \n                                                                 \n=================================================================\nTotal params: 163900 (640.23 KB)\nTrainable params: 163900 (640.23 KB)\nNon-trainable params: 0 (0.00 Byte)\n_________________________________________________________________\n","output_type":"stream"}]},{"cell_type":"markdown","source":"## Pruning the Mod
…
